model/model.pth (torch, 16787 bytes, 4 tensors)

linear1.weight f4 [256, 11]
0	0xbdd6e988	-0.10493761
1	0xbd95db18	-0.073171794
2	0xbe8318fe	-0.25605005
3	0xbe9b5042	-0.3033467
4	0x3ec0e235	0.37672582
5	0x3e7f23f8	0.24916065
6	0xbebcebcc	-0.3689865
7	0xbf137069	-0.575934
8	0x3e872d25	0.2640163
9	0x3da32630	0.07966268
10	0x3edd2d2d	0.4319853
11	0xbd8a24e0	-0.067453146
12	0xbead3288	-0.33827615
13	0x3e5e91e3	0.21735339
14	0xbe957276	-0.2918889
15	0x3eee64b2	0.465612
16	0x3ed32545	0.41239372
17	0xbe535389	-0.20637335
18	0xbea31b13	-0.31856593
19	0xbe5c98b1	-0.21542622
20	0xbeec0575	-0.46097913
21	0xbe32da49	-0.17466082
22	0xbd519231	-0.05116481
23	0xbf34a122	-0.7055837
24	0x3dbcfd4c	0.09228
25	0xbf311c11	-0.6918345
26	0xbe200925	-0.15628488
27	0xbe917e36	-0.28416604
28	0x3def5bd2	0.11687435
29	0x3ef43f6b	0.47704634
30	0xbe77db9d	-0.2420487
31	0x3c0eb30a	0.008709678
32	0x3e815830	0.25262594
33	0x3ef1fab8	0.47261596
34	0x3eb65296	0.35609883
35	0xbea834d6	-0.3285281
36	0xbeb041f6	-0.34425324
37	0xbdc8af68	-0.09799081
38	0xbe434b82	-0.19071773
39	0xbde864bf	-0.11347341
40	0x3df09f77	0.117491655
41	0x3df259a0	0.11833501
42	0x3d84c773	0.064833544
43	0x3da026fd	0.078199364
44	0xbdb560d7	-0.08856361
45	0x3dbf7805	0.09349064
46	0xbc50aeac	-0.0127369575
47	0xbe21fdd3	-0.15819483
48	0xbea166e4	-0.31523812
49	0xbcae0ce3	-0.02124638
50	0xbda5e3a3	-0.08100059
51	0xbe9b035d	-0.30276003
52	0x3b1c5818	0.002385622
53	0xbe301b6f	-0.17197965
54	0xbe136a0a	-0.1439592
55	0x3dc10033	0.09423866
56	0x3ea8ee85	0.32994476
57	0x3e2dfcb9	0.16990937
58	0x3c4aa081	0.012367369
59	0x3b7207f9	0.0036931022
60	0xbddbf309	-0.10739715
61	0xbe2277b3	-0.15865974
62	0x3e922cfa	0.2854994
63	0x3ed5ca62	0.41755968
64	0xbe7e241b	-0.2481846
65	0x3e656419	0.22401465
66	0x3e8881c6	0.2666151
67	0x3d2c86b3	0.042120647
68	0x3ef4723d	0.47743407
69	0x3e8b128f	0.27162597
70	0x3d5b6269	0.053560648
71	0xbdb61b7e	-0.088919625
72	0x3e8b6116	0.27222508
73	0xbe6cdabf	-0.2313032
74	0xbe418179	-0.18897046
75	0xbda36b04	-0.07979396
76	0x3e8e2eb5	0.2777001
77	0xbdea50f2	-0.1144122
78	0xbf17cf04	-0.59300256
79	0xbe8c9852	-0.2745996
80	0xbe5ca11b	-0.21545832
81	0x3dc0cab4	0.094136626
82	0xbebb2f76	-0.36559647
83	0x3c982327	0.01857145
84	0xbf2d72c2	-0.6775323
85	0xbe52888a	-0.20559898
86	0x3e3bc8f5	0.18338378
87	0x3be4c871	0.0069819023
88	0x3eaa9a1b	0.33320698
89	0x3e9a0726	0.3008358
90	0x3ef82cfb	0.48471817
91	0xbd4423e9	-0.04788581
92	0xbe4d4473	-0.20045643
93	0xbe3db7d9	-0.18527164
94	0xbe33a923	-0.1754499
95	0xbe0c9282	-0.13727763
96	0x3f101469	0.56281143
97	0xbca37d9d	-0.019957358
98	0x3e005373	0.12531833
99	0xbe33d981	-0.1756344
100	0x3e75f755	0.24020131
101	0xbe134db9	-0.14385118
102	0x3ede1fe4	0.43383706
103	0xbe597419	-0.21235694
104	0xbd9a294d	-0.07527409
105	0xbdc38a28	-0.095478356
106	0xbeebfbf9	-0.46090677
107	0xbec328b9	-0.38117006
108	0xbe328488	-0.17433369
109	0x3e722820	0.23648119
110	0xbe392c81	-0.18083383
111	0xbee9736d	-0.45595875
112	0xbdb1fa9d	-0.08690379
113	0xbd50d906	-0.05098822
114	0x3df84356	0.12122218
115	0xbe883335	-0.26601568
116	0x3dc10d3a	0.09426351
117	0x3d7a88e8	0.06116572
118	0xbe6cf091	-0.23138644
119	0x3d0b9b63	0.034083735
120	0xbd51b55f	-0.05119836
121	0xbcd9f4f0	-0.026606053
122	0xbe2ebadc	-0.17063469
123	0x3e532224	0.20618492
124	0xbd470d5d	-0.04859673
125	0xbd08cece	-0.03340035
126	0x3e481814	0.19540435
127	0xbe4653e9	-0.19367947
128	0xbe25dab9	-0.16196717
129	0x3e54d11c	0.20782894
130	0xbe4a7ab8	-0.19773376
131	0x3c527d88	0.012847312
132	0xbd51bd91	-0.051206175
133	0xbde6a420	-0.11261773
134	0xbe5140bc	-0.2043485
135	0xbe9b086f	-0.30279872
136	0x3ee2e0b3	0.44312057
137	0xbe41f992	-0.1894286
138	0xbedd01d9	-0.43165472
139	0xbe9a85f8	-0.30180335
140	0x3ea9609f	0.3308153
141	0x3c417b8e	0.011809243
142	0xbe872a77	-0.26399586
143	0xbf27c00b	-0.6552741
144	0x3e6ad71f	0.22933625
145	0xbdedc839	-0.11610455
146	0x3cb0a32d	0.021562183
147	0xbe1f786b	-0.1557328
148	0x3e8b237b	0.27175507
149	0x3e4ae5fc	0.19814295
150	0x3da93416	0.08261888
151	0xbecd29c4	-0.40070927
152	0x3c0f1f9f	0.008735566
153	0x3dd16dac	0.102259964
154	0xbcaa826c	-0.020814143
155	0x3ec1ed33	0.3787628
156	0xb9640244	-0.00021744618
157	0xbf074660	-0.5284176
158	0xbe3a2c58	-0.18180978
159	0xbe8f072a	-0.27935153
160	0xbeb31e60	-0.34984112
161	0x3e611f4c	0.21984595
162	0x3cf10b54	0.029424347
163	0x3dfb96a5	0.122845925
164	0xbe9d6461	-0.30740646
165	0x3e76d206	0.24103555
166	0x3e646afd	0.22306438
167	0x3d5da5e5	0.054113287
168	0xbda6a306	-0.08136563
169	0xbcb7377c	-0.022365324
170	0xbe03f886	-0.12887773
171	0xbdc6a3d6	-0.09699218
172	0x3e7aecec	0.24504441
173	0x3e96276e	0.29326957
174	0x3e15333a	0.14570323
175	0xbe35f7a4	-0.17770249
176	0xbe1e237d	-0.15443225
177	0xbdbe7e62	-0.09301449
178	0x3e8c7a57	0.27437088
179	0x3d988564	0.07447317
180	0xbe513282	-0.20429423
181	0xbe11f596	-0.1425384
182	0xbd82b845	-0.06382803
183	0x3eb1cfbe	0.34728807
184	0x3e83042f	0.2558913
185	0x3e026b13	0.12736158
186	0xbe576d47	-0.2103778
187	0x3d87b87b	0.06626984
188	0xbe5f011f	-0.21777771
189	0x3de8eb51	0.11373008
190	0xbe923b57	-0.28560898
191	0xbe83586b	-0.25653395
192	0x3e058ee8	0.13042796
193	0xbe97b7da	-0.29632455
194	0xbe1ad221	-0.1511922
195	0xbe8cefcb	-0.27526698
196	0xbe82c9bd	-0.2554454
197	0xbe574ed9	-0.21026172
198	0xbe29c4f3	-0.16579036
199	0x3f1657e9	0.5872789
200	0xbd22278a	-0.03958849
201	0x3e2bfec6	0.16796407
202	0x3e34a154	0.17639667
203	0xbe56b1fb	-0.20966332
204	0xbe6f0675	-0.23342307
205	0x3ec5c064	0.38623345
206	0x3ec86e6b	0.39146742
207	0x3dfeec55	0.124474205
208	0xbe174a1f	-0.14774369
209	0xbe0b3008	-0.13592541
210	0x3dd39fca	0.10333212
211	0x3e4ca268	0.19983828
212	0xbe06ad61	-0.13152076
213	0xbeaddd55	-0.33957925
214	0x3e06398a	0.13107887
215	0xbd57ad9d	-0.052655805
216	0x3e56de15	0.20983155
217	0xbde30c57	-0.11086338
218	0xbeb276b1	-0.3485618
219	0xbec1f221	-0.37880042
220	0x3ea587f6	0.32330292
221	0x3eb9c941	0.36286357
222	0x3e3b7241	0.18305303
223	0xbe438d4b	-0.19096868
224	0x3eaff4b6	0.34366387
225	0x3e64ff71	0.22363068
226	0xbec70501	-0.38871005
227	0x3ec1ffa4	0.3789035
228	0xbe8d7f58	-0.27636218
229	0xbe938726	-0.28814048
230	0xbd7dfb97	-0.062007513
231	0xbe73597c	-0.23764604
232	0x3c3e5948	0.011617966
233	0x3dd991b0	0.10623491
234	0x3ef5089b	0.47858128
235	0xbe979bff	-0.29611203
236	0x3ea14651	0.3149896
237	0xbe812efa	-0.25231153
238	0xbeee8e4c	-0.4659294
239	0xbe9193ab	-0.28432974
240	0xbe9d7df8	-0.3076017
241	0xbebdc26d	-0.37062398
242	0x3cee75e1	0.029108943
243	0x3d9273a5	0.07150964
244	0x3edb816a	0.42872173
245	0x3d933eeb	0.07189735
246	0x3d0895f7	0.033346143
247	0xbe4dac5a	-0.20085278
248	0x3dc4a8e7	0.09602528
249	0x3eab565a	0.3346432
250	0x3e8790d5	0.26477686
251	0x3da63e58	0.0811736
252	0x3e0170b7	0.12640654
253	0xbec29ef0	-0.38011885
254	0x3e3c086a	0.18362585
255	0x3ede10e0	0.4337225

linear1.bias f4 [256]
0	0xbdf70bcb	-0.12062796
1	0xbdbc468d	-0.09193144
2	0xbdcfcef8	-0.10146898
3	0x3d653e3a	0.055967547
4	0x3e1475b9	0.14498033
5	0xbdb66f60	-0.08907962
6	0xbea14bdf	-0.31503198
7	0x3f0056a3	0.501322
8	0xbe8574e0	-0.2606573
9	0xbcfbd3a4	-0.030740567
10	0xbe4be62c	-0.19912022
11	0xbd5aab15	-0.053385813
12	0x3d80ddbf	0.06292295
13	0x3d4223ea	0.04739753
14	0xbdc0ad0c	-0.09408006
15	0xbd973fc3	-0.073852085
16	0x3e1106f1	0.14162804
17	0xbe7ea79d	-0.24868627
18	0xbe2cf54c	-0.16890448
19	0x3c62bd87	0.013839132
20	0x3bc03531	0.005865716
21	0x3dfbeb66	0.12300758
22	0xbe459a00	-0.19297028
23	0xbe731d1c	-0.23741573
24	0xbe33186f	-0.1748979
25	0x3d5983c8	0.053104192
26	0xbe131216	-0.14362368
27	0xbe8530bf	-0.26013753
28	0xbe8c689e	-0.27423567
29	0xbd08d2e7	-0.033404257
30	0x3e8db7dc	0.27679336
31	0xbe3009ed	-0.17191286
32	0xbe258ae0	-0.16166258
33	0xbdc62155	-0.09674326
34	0xbe354b2e	-0.1770446
35	0x3e85bf15	0.26122347
36	0xbeb97027	-0.36218378
37	0xbe87b125	-0.26502338
38	0xbda940de	-0.082643256
39	0x3e3b7d3c	0.18309492
40	0xbe2b3703	-0.16720204
41	0x3e3a6967	0.1820427
42	0x3e59c8eb	0.2126805
43	0xbe17bfd7	-0.14819275
44	0xbea11342	-0.31460005
45	0x3d5cd90f	0.05391794
46	0xbe28a5d5	-0.1646951
47	0x3ee9ac24	0.45639145
48	0x3d9e60b3	0.07733288
49	0x3f0a688e	0.5406579
50	0x3de1d9ed	0.11027894
51	0xbe1ed9ed	-0.1551282
52	0xbeb86c78	-0.36020255
53	0xbe486ced	-0.19572802
54	0xbd81fc29	-0.06346924
55	0x3c406827	0.011743582
56	0xbe10c2e5	-0.14136846
57	0x3d889f90	0.06671059
58	0x3eb68088	0.35644937
59	0xbd324ab0	-0.04352826
60	0xbdec6835	-0.115433134
61	0x3dfe0bcb	0.12404593
62	0xbe3c0c78	-0.18364131
63	0x3e27ec79	0.16398801
64	0x3e3ae890	0.18252778
65	0xbe65ad66	-0.22429428
66	0x3e8f4888	0.27985024
67	0xbe037a30	-0.1283958
68	0xbc2c7edd	-0.010528293
69	0x3edc5265	0.43031612
70	0x3d9ce4b5	0.0766081
71	0xbea19e4d	-0.31566086
72	0xbd2f8840	-0.042854548
73	0x3eaeef3e	0.34166902
74	0xbe3a5cc2	-0.18199447
75	0xb9c97a35	-0.0003842876
76	0xbe80431a	-0.25051194
77	0x3e869061	0.26282027
78	0xbda304a1	-0.07959867
79	0xbcc93ab0	-0.024564117
80	0xbd87db8f	-0.06633674
81	0x3d921f47	0.07134872
82	0xbe755c35	-0.23960955
83	0x3db4f499	0.08835716
84	0xbe3be647	-0.18349563
85	0xbe95b321	-0.29238227
86	0xbdcb49f3	-0.09926214
87	0x3c308394	0.010773558
88	0x3e87ca17	0.2652137
89	0xbe378904	-0.17923361
90	0xbea331ac	-0.31873834
91	0xbe721449	-0.2364055
92	0xbe94efd6	-0.2908923
93	0xbc46819d	-0.012115863
94	0xbe9620d4	-0.2932192
95	0x3b8dc64d	0.004326618
96	0x3e8776b6	0.26457757
97	0xbd28a0ab	-0.04116885
98	0xbe9e8b3a	-0.30965596
99	0xbda71a2a	-0.08159287
100	0x3f1c5432	0.6106597
101	0xbe96bd64	-0.2944137
102	0xbe8e3570	-0.27775145
103	0xbd5bc334	-0.053652957
104	0xbc859b22	-0.016309325
105	0xbe1e02ff	-0.1543083
106	0xbd77b302	-0.06047345
107	0xbe9211a6	-0.2852909
108	0xbe5d0665	-0.2158447
109	0x3e5e9f50	0.2174046
110	0xbe2cb2d5	-0.16865094
111	0xbc02df37	-0.007987789
112	0xbe4c9775	-0.19979651
113	0xbeac0fdd	-0.33605853
114	0x3cc0a231	0.023514839
115	0xbd0274fc	-0.031849846
116	0x3aac451c	0.0013143155
117	0xbda6331a	-0.081152156
118	0xbe6211cf	-0.22077106
119	0x3b81d1ee	0.003961793
120	0x3f0f0eb3	0.55881804
121	0x3f50b193	0.81520957
122	0xbe0c3fef	-0.13696264
123	0xbe01aca7	-0.12663518
124	0x3ec9cb04	0.394127
125	0x3cfdcfbd	0.030982846
126	0xbe918e9e	-0.2842912
127	0xbe664fe9	-0.22491421
128	0xbe904b2e	-0.28182358
129	0xbdcd987c	-0.1003885
130	0xbe88527a	-0.26625425
131	0xbccb24e0	-0.024797857
132	0xbde968c4	-0.113969356
133	0xbeacb00b	-0.3372806
134	0x3e5ffcd5	0.21873792
135	0xbe97d5cb	-0.296553
136	0x3cf65e77	0.030074341
137	0xbe233e8a	-0.15941826
138	0xbdd5a6a9	-0.104321785
139	0xbe8068d1	-0.2507997
140	0x3eb2fe92	0.34959847
141	0xbda85b14	-0.08220497
142	0xbd870e5b	-0.06594535
143	0xbd649cdb	-0.05581365
144	0x3e8ce9a6	0.2752201
145	0xbdfc3a2c	-0.12315783
146	0x3e8489ea	0.2588647
147	0xbd853f9c	-0.06506273
148	0xbe5e09f4	-0.21683484
149	0xbe08dfe5	-0.13366659
150	0xbcd63dcc	-0.026152514
151	0x3e91d720	0.2848444
152	0xbe1ba912	-0.15201214
153	0x3d1aa491	0.0377546
154	0xbe651fe0	-0.2237544
155	0xbe9fbb76	-0.3119771
156	0x3d795650	0.06087333
157	0xbdfa1e5b	-0.12212821
158	0xbd631051	-0.055435482
159	0x3d86f687	0.0658999
160	0x3d35791e	0.04430496
161	0x3ec564e1	0.38553527
162	0xbe109e99	-0.14123
163	0xbe635cab	-0.22203319
164	0xbe4c5b6e	-0.19956753
165	0x3dab608e	0.08368026
166	0x3e11d248	0.14240372
167	0x3f045788	0.5169606
168	0xbe9bdffb	-0.3044432
169	0x3e0ae78c	0.1356489
170	0x3c20136e	0.009770257
171	0xbeb0e007	-0.3454592
172	0xbc1f86f4	-0.009736765
173	0x3dcfdc6a	0.101494625
174	0xbc932f20	-0.017966807
175	0x3f0257f3	0.5091545
176	0xbe1c3b2f	-0.15256952
177	0x3e29c0e5	0.1657749
178	0xbcc2aa77	-0.023762925
179	0xbda16150	-0.07879889
180	0xbc9d2743	-0.01918376
181	0x3e67d2a0	0.22638941
182	0xbd181238	-0.03712675
183	0xbea08fc7	-0.31359693
184	0xbe6c666b	-0.23085944
185	0xbde26ed6	-0.110562965
186	0xbe8ebe68	-0.27879643
187	0xbeb947aa	-0.36187488
188	0x3dea52d9	0.11441583
189	0xbe745c9a	-0.2386345
190	0xbe2612b8	-0.16218078
191	0xbe11808e	-0.14209196
192	0xb8a08fba	-7.656166e-05
193	0x3e1fbeca	0.15600124
194	0xbe382602	-0.17983249
195	0x3da98b4b	0.08278521
196	0xbe645963	-0.22299723
197	0xbdc651ac	-0.096835464
198	0xbe038ce3	-0.12846713
199	0x3da464b3	0.08027019
200	0xbe62bc2c	-0.22142094
201	0xbd24703b	-0.040146094
202	0xbc4aacba	-0.012370283
203	0xbe6019e2	-0.21884874
204	0xbd3aa2e2	-0.045565493
205	0xbe82fcf0	-0.255836
206	0x3ea70be7	0.32626268
207	0xbe8de72c	-0.27715433
208	0xbe0a4975	-0.13504584
209	0x3e04d9a5	0.1297365
210	0x3ef6b993	0.48188457
211	0x3e03770f	0.12838386
212	0xbecc1196	-0.39857167
213	0x3da1a877	0.0789346
214	0xbe545a8f	-0.2073767
215	0xbe0f632f	-0.1400268
216	0xbe91b114	-0.28455412
217	0xbd22a30d	-0.03970628
218	0xbe18ad9f	-0.14909981
219	0xbec12b7a	-0.37728482
220	0x3e394b4a	0.18095127
221	0xbe0ac264	-0.13550717
222	0xbea4cf69	-0.3218949
223	0xbe3383fa	-0.17530814
224	0xbcbfba76	-0.023404341
225	0x3e001180	0.12506676
226	0x3ea7348e	0.32657284
227	0xbd0390e6	-0.032120608
228	0xbdc70d44	-0.09719327
229	0xbe558aca	-0.20853725
230	0x3e30a976	0.17252144
231	0xbe3a0c54	-0.18168765
232	0xbe8ea686	-0.27861422
233	0xbd40796b	-0.046990793
234	0x3e99cdab	0.30039725
235	0xbe4a3022	-0.19744924
236	0x3d6e415d	0.058167804
237	0xbe3543a6	-0.17701587
238	0xbe112d18	-0.14177358
239	0x3e1c45b9	0.15260972
240	0xbeafe541	-0.34354594
241	0x3c6c1ffc	0.014411923
242	0xbe33b918	-0.17551076
243	0xbe7f79ad	-0.2494876
244	0xbead678d	-0.33868065
245	0xbe063ea0	-0.13109827
246	0xbdc0b5c7	-0.09409671
247	0x3c3d48e0	0.011553019
248	0xbdb0aca9	-0.08626682
249	0x3e0b230e	0.13587591
250	0x3e2f6305	0.17127617
251	0xbe91f474	-0.28506815
252	0xbe23e5ad	-0.16005583
253	0xbe11fb9f	-0.14256142
254	0x3e26e964	0.16299969
255	0xbd9b9c2c	-0.07598147

linear2.weight f4 [3, 256]
0	0x3eb944dc	0.36185348
1	0xbe6cf791	-0.23141314
2	0xbeee73ff	-0.46572873
3	0xbd31f523	-0.04344667
4	0x3cccded9	0.025008606
5	0xbd5ad307	-0.053423908
6	0xbdf008aa	-0.117204025
7	0x3e28dbfc	0.16490167
8	0xbd9845ac	-0.07435164
9	0xbd29000e	-0.041259818
10	0xbd78f084	-0.06077625
11	0x3aba5536	0.0014216069
12	0x3e3f216e	0.18665096
13	0x3e0e10e1	0.13873626
14	0x3d8324ea	0.06403525
15	0xbd2642a4	-0.040590897
16	0xbbada52b	-0.0052992306
17	0xbc0df7df	-0.008665054
18	0x3e80f375	0.25185743
19	0xbe83f0f8	-0.25769782
20	0xbe9f23ca	-0.31081992
21	0xbeac149b	-0.3360947
22	0xbd41b949	-0.047295842
23	0x3e75fbbe	0.24021813
24	0xbef293b3	-0.4737831
25	0x3d467071	0.048447076
26	0xbea1fc8a	-0.31637985
27	0xbdadadd9	-0.084804244
28	0xbeb06bc9	-0.34457234
29	0xbe852c1d	-0.26010218
30	0x3e27d545	0.1638995
31	0xbdd99844	-0.106247455
32	0xbeb082c6	-0.34474772
33	0xbe032322	-0.12806371
34	0xbc4872c8	-0.012234397
35	0x3d7ff3a7	0.062488224
36	0x3d424c69	0.04743615
37	0x3d3583eb	0.04431526
38	0x3ca8d2f6	0.020608407
39	0xbe251a83	-0.16123395
40	0x3ddc5a5e	0.10759424
41	0xbe75431e	-0.23951384
42	0x3e0fc8aa	0.14041391
43	0xbb2af3b4	-0.00260852
44	0xbb4649ad	-0.0030256317
45	0xbecd6710	-0.40117693
46	0xbab2cecb	-0.0013641951
47	0x3e80982c	0.25116098
48	0xbe03dec0	-0.12877941
49	0x3ec07ca2	0.37595087
50	0xbb59e452	-0.0033247662
51	0xbd854e9f	-0.065091364
52	0xbe4348c0	-0.1907072
53	0xbd0c3a8c	-0.034235522
54	0x3b9acac7	0.00472388
55	0xbecc06aa	-0.39848834
56	0xbe0548aa	-0.13016
57	0xbe747517	-0.23872791
58	0x3e034791	0.12820269
59	0x3e7877fe	0.24264523
60	0x3e87c7eb	0.26519713
61	0xbf171250	-0.5901232
62	0xbe568ea1	-0.20952846
63	0xbe9bb1ac	-0.3040899
64	0x3d74a182	0.05972434
65	0xbe8bac66	-0.27279967
66	0x3f3482e6	0.70512235
67	0xbc3cf398	-0.011532687
68	0x3d01937e	0.0316348
69	0x3eedebd2	0.4646898
70	0x3c18c938	0.009325318
71	0x3ca824e1	0.020525398
72	0xbd9da770	-0.07697952
73	0x3dd05dff	0.10174178
74	0xbed41e92	-0.41429573
75	0xbe7287fb	-0.23684685
76	0xbdd15038	-0.10220379
77	0x3f0ec971	0.55776125
78	0xbd15c086	-0.036560558
79	0xbe5031ef	-0.20331548
80	0xbea5cde9	-0.3238366
81	0xbd16ca00	-0.036813736
82	0xbc8c632b	-0.01713713
83	0xbe7a3a19	-0.24436225
84	0xbeea6b8c	-0.45785177
85	0xbe6c301f	-0.23065232
86	0x3e36185e	0.17782733
87	0xbcd79064	-0.026313968
88	0xbea219f3	-0.31660423
89	0xbdfbf277	-0.12302106
90	0xbcc14227	-0.023591114
91	0xbb15e306	-0.0022870912
92	0x3d1f013b	0.038819533
93	0x3e9a50ee	0.3013987
94	0xbd0787ba	-0.033088423
95	0xbdc33248	-0.09531075
96	0xbeab859d	-0.33500376
97	0xbe80db40	-0.25167274
98	0x3c8d570a	0.017253418
99	0xbefb4a7f	-0.49080274
100	0x3f16910e	0.58815086
101	0x3c0d9d00	0.008643389
102	0xbf178489	-0.5918661
103	0xbdc9fb52	-0.09862389
104	0xbea1d000	-0.31604004
105	0xbeb7f1ae	-0.35926574
106	0xbd563ba3	-0.052302968
107	0x3da86499	0.082223125
108	0xbe060126	-0.13086376
109	0x3d8114c0	0.06302786
110	0x3e3f103a	0.18658534
111	0xbcb62d5b	-0.022238424
112	0xbcfe5e16	-0.031050723
113	0xbd0270b4	-0.031845763
114	0xbe167929	-0.14694656
115	0xbe8b9a67	-0.27266237
116	0xbdfd117d	-0.12356851
117	0xbd45f92a	-0.048333324
118	0xbcc88d37	-0.024481399
119	0x3c307d29	0.010772028
120	0x3f06a9f8	0.526031
121	0x3ec16ca3	0.37778196
122	0x3ea01cfe	0.3127212
123	0xbe2cbf24	-0.1686979
124	0x3e223332	0.15839842
125	0x3e0d8d66	0.1382347
126	0xbc706451	-0.014672355
127	0xbf4775bc	-0.77914023
128	0x3ba245c0	0.0049521625
129	0x3e785d08	0.24254239
130	0xbe7ff365	-0.24995191
131	0x3dc2c93d	0.095110394
132	0x3e1f14b4	0.15535241
133	0x3dab8eae	0.08376823
134	0x3ef39f19	0.4758232
135	0xbee097e6	-0.4386589
136	0xbd9c0770	-0.07618606
137	0xbe481b64	-0.19541699
138	0xbe14db35	-0.14536746
139	0xbea2be4f	-0.3178582
140	0x3f141810	0.57849216
141	0xbc8b8179	-0.01702951
142	0x3e43916d	0.19098444
143	0xbde1a372	-0.11017503
144	0x3de12454	0.10993257
145	0xbdab2eca	-0.08358534
146	0x3e658b69	0.22416462
147	0x3d0c26fe	0.034216873
148	0xbbdf78aa	-0.006819804
149	0xbd126689	-0.035742316
150	0xbd51ec0a	-0.051250495
151	0x3e4219d0	0.18955159
152	0x3c717302	0.014736893
153	0xbb4d9bab	-0.0031373303
154	0x3d09437b	0.03351162
155	0x3ca2d435	0.019876579
156	0xbd548f27	-0.051894333
157	0xbc9a02c1	-0.018800141
158	0xbee844d1	-0.45365003
159	0x3bd2b6a9	0.006430466
160	0x3e50ebd4	0.20402461
161	0x3e98bf68	0.2983353
162	0xbd1dcf9b	-0.038528066
163	0xb9ee905e	-0.0004550246
164	0xbc8ef39b	-0.017450145
165	0xbe843841	-0.25824168
166	0xbd11ca5a	-0.035593368
167	0x3eae91a0	0.34095478
168	0xbecc2eef	-0.39879557
169	0x3e47c0de	0.19507167
170	0xbd010634	-0.031500056
171	0xbe582191	-0.21106555
172	0xbbacdbb7	-0.0052752155
173	0xbe0d95a6	-0.13826618
174	0x3d61d5c6	0.05513551
175	0x3e72aa03	0.23697667
176	0xbe34fb2b	-0.17673938
177	0x3e223fe2	0.15844682
178	0x3eacffa9	0.33788803
179	0x3bc64009	0.006050114
180	0xbe486a8f	-0.19571899
181	0x3ed48dbc	0.41514385
182	0x3e0326a7	0.12807713
183	0x3c6bac58	0.014384352
184	0xbf35b4b9	-0.70978886
185	0xbea5c3a4	-0.32375824
186	0x3be9b5db	0.0071322746
187	0xbd751e5e	-0.059843414
188	0xbc71b802	-0.014753344
189	0x3e1fecaf	0.15617631
190	0x3e390843	0.18069558
191	0x3b656e87	0.0035008506
192	0xbda92df3	-0.08260717
193	0x3f33803c	0.70117545
194	0x3de254db	0.11051341
195	0x3c6e2897	0.014536045
196	0xbe938ddb	-0.28819165
197	0xbd3dfb66	-0.04638233
198	0xbe459719	-0.1929592
199	0xbe23727e	-0.15961644
200	0xbc8fc36e	-0.017549243
201	0xbdb7936e	-0.08963667
202	0x3c966994	0.01836089
203	0xbe236843	-0.15957741
204	0xbe709031	-0.23492505
205	0x3e6f4874	0.23367482
206	0x3e236555	0.15956624
207	0xbe67f1a4	-0.22650772
208	0xbdca0d21	-0.098657854
209	0x3e861d50	0.2619424
210	0x3ec24905	0.37946334
211	0x3dffde8c	0.12493619
212	0xbebf4020	-0.3735361
213	0x3d863394	0.065528065
214	0xbe532413	-0.2061923
215	0xbe8edaad	-0.2790121
216	0xbf34311e	-0.70387447
217	0xbdee4290	-0.116337895
218	0xbd9676ba	-0.07346864
219	0xbecf3503	-0.40470132
220	0x3e1819df	0.14853619
221	0xbe892cbe	-0.26791948
222	0xbba0cb00	-0.004907012
223	0xbe6f9d66	-0.23399886
224	0x3dc186ad	0.094495155
225	0x3deac6d0	0.11463702
226	0x3e8b6e9c	0.27232826
227	0xbe849fb7	-0.25903103
228	0x3e238d1c	0.15971798
229	0xbe5c6837	-0.2152413
230	0xbea06130	-0.31324148
231	0xbe9f8211	-0.3115392
232	0xbea26e8d	-0.3172497
233	0x3d9f51a3	0.07779243
234	0xbe54d1ae	-0.20783111
235	0xbe9159bd	-0.28388777
236	0x3beed547	0.0072886082
237	0xbcd0719d	-0.0254448
238	0xbe000fac	-0.12505978
239	0x3e31d7d7	0.17367493
240	0xbdde747e	-0.10862063
241	0xbcefec15	-0.029287377
242	0xbd85d287	-0.065342955
243	0xbd68f76d	-0.05687659
244	0xbe010c77	-0.12602411
245	0xbe9e2508	-0.30887628
246	0xbde2521c	-0.11050817
247	0xbd90d81a	-0.07072468
248	0xbba6cdbe	-0.0050904443
249	0x3c9281d3	0.01788417
250	0x3f345c8c	0.70453715
251	0xbc061745	-0.008184259
252	0xbd797f0c	-0.060912177
253	0xbe2d77d9	-0.1694025
254	0x3d90780f	0.07054149
255	0xbec98877	-0.39361927

linear2.bias f4 [3]
0	0x3e847c5b	0.25876126
1	0xba2b6180	-0.0006537661
2	0xbd431e04	-0.047636047
